NLP-Chatbot-Pytorch/data.pth (torch, 5291 bytes, 6 tensors)

l1.weight f4 [8, 54]
000000 98 0c 0c 3d 90 89 0e 3c cc 86 0f 3d 75 18 c4 bd
       0.034191698 0.00869979 0.03504066 -0.09574977
000010 42 1f 73 bd 6a 78 89 bd d0 0f 2f 3d 54 3e ad 3d
       -0.05935598 -0.0671242 0.04273969 0.08459154
000020 74 1a e4 3d d8 4e 41 3d 00 d7 b5 3c 94 19 0b bd
       0.11137858 0.047194332 0.022197247 -0.03395994
000030 b8 37 5e 3d c8 ac db bc 0b 1b 99 bd 60 68 fc bb
       0.054252356 -0.026815787 -0.07475861 -0.007702872
000040 3c 1e c2 3d 56 01 03 be ee c0 f3 bd c2 46 f6 bd
       0.09478423 -0.12793478 -0.11902033 -0.12025215
000050 94 fd 3d bd a0 89 d2 3c aa c5 c9 3d e4 0b 72 bd
       -0.04638441 0.02570039 0.098521546 -0.05909337
000060 9a f5 5e bd ce cc 94 3d f8 1d 79 bc b4 32 e3 bd
       -0.054433443 0.07265626 -0.015204899 -0.11093655
000070 34 4b 93 3d c4 67 16 bd 40 6c a4 3c fc 5d bc bc
       0.07192078 -0.036720052 0.020071149 -0.022994034
000080 00 99 92 3d e0 a8 a6 bc fc 12 a1 bc 78 27 ba bc
       0.07158089 -0.020344198 -0.019662373 -0.022723898
000090 32 6c 98 bd d8 cc a4 3c cc 30 ca bd 25 5a a2 bd
       -0.074425116 0.020117208 -0.098725885 -0.0792735
0000a0 20 0a 7d 3d 76 b0 8a bd 70 86 da 3d 56 1a d4 3d
       0.061777234 -0.067719385 0.10670173 0.10356586
0000b0 26 43 10 bd 5d 17 92 bd ca 52 9c bd a6 87 a5 bd
       -0.035220288 -0.071333624 -0.07632978 -0.080825135
0000c0 8f 62 e1 bd f4 ee 25 3d a0 61 5d 3c 28 5c cb 3c
       -0.11005127 0.040511087 0.013512045 0.024824217
0000d0 6f 9a 99 bd 6c 06 7c bd 90 9c 45 3c 86 18 d0 bd
       -0.07500159 -0.061529562 0.012061253 -0.101609275
0000e0 28 52 f8 3d 40 96 1e bc c0 76 ea bd 80 1e d7 3a
       0.12125045 -0.009679377 -0.11448431 0.0016412288
0000f0 04 cb f6 bc e0 c2 74 3c 94 93 ee 3d 74 72 e2 3d
       -0.030126102 0.01493904 0.11649242 0.110569865
000100 84 e7 e3 bd 9d 2e e5 bd b4 b3 97 bd 9e 82 f3 3d
       -0.111281425 -0.111905314 -0.074073225 0.118901476
000110 5e 34 26 bd f4 76 05 be b4 66 f6 bd 60 b9 d5 bc
       -0.040577285 -0.13033658 -0.12031308 -0.02608937
000120 9c e4 e1 bd 00 40 8e 37 04 62 77 3d 9e 9a 04 be
       -0.11029932 1.6957521e-05 0.06039621 -0.12949607
000130 2a ec 8b 3d 9a 46 76 3c e6 57 6a bd e6 22 8a 3d
       0.06832154 0.015031481 -0.057212733 0.067449376
000140 60 1e 96 3b 6a 39 94 3d 64 68 56 bd 8f 20 02 be
       0.0045812577 0.07237513 -0.05234565 -0.12707733
000150 78 36 0a bd 96 4c a4 3a d0 4b 50 3c b8 ab 62 bd
       -0.03374335 0.0012535031 0.012713388 -0.055339545
000160 88 34 88 3c fe 01 5d bd 67 91 08 be 05 0e 12 3d
       0.016626611 -0.053956978 -0.13336717 0.0356579
000170 e0 47 01 be 69 7b b0 bd 24 d4 bd bd b0 74 7f bc
       -0.12625074 -0.086172886 -0.09268978 -0.015591785
000180 b0 52 49 3d 38 0c e4 3c fe a4 08 be 78 43 ef bc
       0.049151123 0.027837858 -0.1334419 -0.029206976
000190 aa cd 6d bd de 94 f6 bd f7 ec dd bd c4 bd 87 3d
       -0.058057465 -0.12040113 -0.10836213 0.06627992
0001a0 d8 09 43 3d 38 8e 5d 3d 30 80 27 bd 99 0d 07 3d
       0.04761681 0.05409071 -0.040893734 0.032971952
0001b0 1b d6 3b be 37 b4 0a 3e 3b b6 79 be f9 39 03 3f
       -0.18343394 0.13545309 -0.24385922 0.51260334
0001c0 b2 de 9e be 1d c0 12 bf ca f0 80 be 1a 35 19 be
       -0.31029278 -0.5732439 -0.25183707 -0.14961663
0001d0 c0 b2 02 3c fd f9 19 bd a6 40 62 3e 85 99 a5 3d
       0.007977188 -0.037591923 0.22094974 0.08085922
0001e0 59 6c 8e 3c 84 47 26 3e fa 07 70 3e cb 9d 1a bd
       0.017385649 0.16238219 0.23440543 -0.03774814
0001f0 75 11 93 3e 4c c5 12 bf c0 7e 85 bc bc e9 f9 3e
       0.28724256 -0.573323 -0.01629579 0.48811138
000200 36 03 87 be 1e c3 48 3f 51 75 16 3f 61 3a 02 bd
       -0.26369637 0.78422725 0.5877276 -0.031793956
000210 39 bb ae bd 4d a2 ba 3e f9 f2 4d be 6d 5d 3a 3e
       -0.08531804 0.3645195 -0.20112218 0.18199702
000220 e5 1a 16 be 19 50 29 3f be 5c ad bc ea e1 ef 3d
       -0.14658697 0.66137844 -0.021162387 0.117130116
000230 6d cc d6 bd e5 1c 62 bd 0b 2f 11 be 60 b4 f2 3c
       -0.1048821 -0.055203337 -0.14178102 0.029627025
000240 61 21 88 be 16 d6 1d bd c5 85 cd bd c3 47 fb bd
       -0.26587966 -0.038534246 -0.1003528 -0.12269547
000250 94 1d 86 be 36 87 4d be 28 25 ab bd 28 41 20 3e
       -0.2619444 -0.2007111 -0.08356696 0.15649855
000260 2c a2 c7 bd 55 99 15 be 9f c3 12 bf a7 63 01 be
       -0.09747729 -0.14609273 -0.57329744 -0.1263567
000270 14 c8 e5 3e 08 4a cd bd b7 16 6d 3d 8b 1c ba bd
       0.4487921 -0.10023886 0.05788299 -0.090874754
000280 34 e7 8f bc c2 cc 94 be e6 90 d1 3e 95 92 f6 bd
       -0.0175663 -0.29062468 0.4093086 -0.12039677
000290 0e e1 fe 3e fc 8a 44 3d 47 2b b9 3e 33 e3 a4 3c
       0.49781078 0.04798411 0.3616583 0.020127868
0002a0 05 52 40 3f 46 a4 a1 3e 20 92 0e 3f 4e 47 5e 3e
       0.7512515 0.31570643 0.5569172 0.21706888
0002b0 07 97 84 3d 5d a1 86 3f 68 de 92 3d 88 53 81 3f
       0.06474119 1.0517994 0.07171327 1.0103617
0002c0 7b e8 15 be e6 cf 30 3f 7d 2d 1d 3d 60 72 2e 3c
       -0.14639466 0.6906723 0.03837346 0.010647386
0002d0 d4 c4 be be 3e 96 e0 bd 29 2f 84 3e a6 a9 99 bd
       -0.37259543 -0.109661564 0.2581723 -0.07503061
0002e0 99 57 54 bd 8f ef 35 3f 3e 76 5f 3f 2f 61 10 3e
       -0.051841352 0.7106866 0.872898 0.14099573
0002f0 5d 40 0a bf d9 d4 fb be 16 a4 6c bd 3a d3 ee be
       -0.5400446 -0.49185827 -0.057773672 -0.46645528
000300 cc ad 0e 3e ef 6a 7b 3f e0 48 05 3f 3c 8c e2 3e
       0.13933486 0.9821004 0.52064323 0.44247615
000310 5a c5 a1 be c4 8b 53 3f 1c 72 90 bd d2 d9 b9 3e
       -0.3159588 0.8263514 -0.07053015 0.36298996
000320 2f 5f 39 3f 5f 0f 45 3f 82 0b 8d bd 98 1b 1c bf
       0.72410864 0.7697658 -0.068869606 -0.60979605
000330 8a 9d 52 3f c5 dd a1 be 6d ec 46 3f 41 48 09 be
       0.82271636 -0.3161451 0.7770451 -0.13406469
000340 f0 19 29 3f 17 7c 9c 3e ef be a0 3d 71 01 2a bf
       0.660552 0.30563423 0.07848918 -0.6640845
000350 00 12 40 3f 85 c0 91 be a7 0f 41 3f 7c dd cf 3e
       0.75027466 -0.28467193 0.7541451 0.40598667
000360 77 91 ad be 6e cc 2e 3f 4f 3a b9 be a2 a5 19 3e
       -0.33900043 0.68280685 -0.36177298 0.1500459
000370 d8 f1 c0 3d cc e5 2d 3f 9d 52 72 be 72 74 99 be
       0.09421128 0.6792877 -0.23664327 -0.29971653
000380 f7 5c 8c be 34 0d a9 be 7a 10 2e bc 66 b0 56 3e
       -0.27414677 -0.33017886 -0.0106240455 0.20965728
000390 cd d5 65 3e 19 dc a9 3e 00 7a b6 3e 46 a5 d9 3d
       0.2244484 0.33175734 0.35639954 0.106272265
0003a0 0c 39 fa 3b 55 e9 33 3f 7c 4f 37 be f6 ed 9b 3d
       0.007636195 0.7027791 -0.17901415 0.07613747
0003b0 8b 84 b1 be 2e 71 71 3d f2 ff 69 3d 6a a0 e7 3e
       -0.34671435 0.058945827 0.057128854 0.45239574
0003c0 63 0f d1 3d 4e 37 dd 3d 0b c6 10 bd 55 34 3f 3f
       0.10208013 0.10801564 -0.03534512 0.7468923
0003d0 b9 ab 02 3e 5b d6 0c 3f eb 48 e8 3e 02 9e 14 3e
       0.1276082 0.5501458 0.45368132 0.145134
0003e0 30 f5 2b be 19 d9 a3 be 5a ae 0e 3f fd 3e 97 3e
       -0.1679275 -0.3200157 0.5573479 0.29540244
0003f0 4b bd 28 3e 9b 80 d6 be 2e 42 4b be 58 01 a8 be
       0.1647846 -0.41894993 -0.19849464 -0.32813525

l1.bias f4 [8]
000000 00 b2 06 be 41 b6 b0 bd 83 c0 12 3f e1 97 69 3f
       -0.13153839 -0.08628512 0.57325 0.91247374
000010 4a da 71 3f e9 9c 21 3f 9b 30 0e 3f c3 ca 72 3f
       0.9447371 0.6313005 0.55542916 0.9484064

l2.weight f4 [8, 8]
000000 80 b2 ae bb 00 e2 a5 3e c7 d7 34 bf dd 50 00 bf
       -0.0053313375 0.32398987 -0.7064175 -0.5012339
000010 57 f4 9a 3f 0b 8c 8b 3f 04 bf 92 bf 34 70 fa 3c
       1.2105817 1.0902113 -1.1464543 0.03057108
000020 71 e1 38 be 8c ac bc 3d a7 6b 9b 3f 08 eb 5b bf
       -0.18054749 0.09212598 1.2142228 -0.85905504
000030 75 d6 2a 3f 25 d6 88 be 26 5e 24 bf f2 5d 2a 3f
       0.66733485 -0.2672588 -0.6420616 0.665496
000040 30 db 08 3d 2b 13 5f be b8 01 ee 3d 72 bd ab be
       0.03341216 -0.21784656 0.116214216 -0.33542973
000050 67 79 39 3e 08 3c 69 3f d0 27 a1 be a4 3d fc bd
       0.18112718 0.91107225 -0.31475687 -0.123164445
000060 9a 57 66 3e 2c 44 2a bb 2e 91 a4 be 1e 1e 8c 3f
       0.22494355 -0.0025980575 -0.32142013 1.0946691
000070 50 9a 8d bf b3 85 95 3f 9e f2 cb 3f 70 f7 5a be
       -1.1062717 1.1681427 1.5933416 -0.21383452
000080 e8 ee 47 be d3 de 78 be 5f 50 a7 3f 1f 96 a7 3f
       -0.19524729 -0.2430375 1.3071402 1.3092688
000090 11 89 8b 3f d8 87 3e bf f2 2d 92 be 6f 9e bc 3e
       1.0901204 -0.7442603 -0.28550678 0.36839625
0000a0 ca a8 77 3e 39 18 fa bd a8 a5 11 bf c8 61 49 3f
       0.24185482 -0.12211651 -0.56893396 0.7866483
0000b0 5d 90 79 3f 25 28 d5 3b c5 18 27 bf 55 c2 0b bf
       0.97485906 0.0065050297 -0.6527217 -0.545934
0000c0 50 b3 80 be 1f ce bb bd fe d6 26 3f 93 cf 10 bf
       -0.25136805 -0.09170174 0.651718 -0.56566733
0000d0 a1 b5 68 3f e0 9b 0e 3f 1d 09 93 3f c6 90 b7 3f
       0.90902144 0.55706596 1.1487156 1.4341056
0000e0 f8 71 a0 3d 48 62 10 3e 98 ca ce be 08 a1 5f bd
       0.07834238 0.14099991 -0.40388942 -0.05459693
0000f0 03 82 fd bd e8 f5 fa 3e 6e e8 3d 3f 7f 11 39 3f
       -0.123783134 0.49015737 0.74182785 0.7229232

l2.bias f4 [8]
000000 f5 9e ed 3e ae e9 e9 be f1 9d d0 be a5 be 5a 3e
       0.46410337 -0.45686096 -0.407455 0.21361788
000010 b7 4a 52 3f 26 16 f8 3e b8 1f 14 3f 7a 80 04 bf
       0.82145256 0.48454398 0.578609 -0.5175854

l3.weight f4 [7, 8]
000000 d1 a1 cd bf 3b 1c 66 bf 61 16 86 bf b7 7d 71 bd
       -1.6065007 -0.89886826 -1.047558 -0.05895778
000010 f1 9a 35 3f 1d 13 33 3f d3 cf b9 bf 91 90 a5 bf
       0.70939547 0.6995104 -1.4516548 -1.2934743
000020 0e b6 4a 3e c4 7b 5d 3f 90 41 c9 3e 54 09 ba bf
       0.19796011 0.86516976 0.39307833 -1.4534097
000030 2d 23 19 bf 54 d2 14 be e0 27 86 3d cd 09 3f 3e
       -0.598193 -0.14533359 0.06550574 0.18656082
000040 3c 3c 29 3f 26 ca 00 c0 7b 0a 8d bf ab 17 bc bf
       0.66107535 -2.0123382 -1.1018823 -1.4694723
000050 61 94 9e 3e 0f b6 40 3f a9 20 99 3d 91 9f aa bf
       0.3097258 0.752778 0.074769326 -1.3329946
000060 ea c6 f8 bf 1b 67 33 3e 7c 65 63 bf d0 a5 59 bf
       -1.9435704 0.175198 -0.8882673 -0.85018635
000070 38 27 5e 3f 7f 76 01 bf 6e a7 0d 3f cd bb 1e bf
       0.86778593 -0.50571436 0.553336 -0.6200531
000080 c6 b8 e2 3e 75 43 76 bf 38 a4 8b 3e 89 39 50 be
       0.44281596 -0.9619668 0.27273726 -0.20334448
000090 12 cb 8e bf 53 d9 72 bf d8 1c 83 3e ed db 94 3c
       -1.1155722 -0.9486286 0.25607944 0.018171275
0000a0 92 b7 70 bd 09 56 fc be 78 2c f0 3e 2c 3d 6c 3f
       -0.058768816 -0.4928439 0.46908927 0.9228084
0000b0 a7 c0 e4 3b 3b 43 40 3e d1 03 80 bf 7e f4 34 bf
       0.0069809738 0.18775646 -1.0001165 -0.70685565
0000c0 34 a3 c9 bf f0 8a 54 bf 59 df 61 bf 93 ec bf 3e
       -1.5752931 -0.830245 -0.88231426 0.3748518
0000d0 51 9f 0e bf 30 1f 05 bf cd bb 41 3e 7c ed 63 3f
       -0.5571185 -0.52000713 0.18919297 0.8903425

l3.bias f4 [7]
000000 ee 92 e1 3d a9 8b ba be 78 4b 91 3e 6c 7a 9a 3e
       0.11014353 -0.36434677 0.2837789 0.30171525
000010 a7 ac 53 bc 98 1b 9b bc 7f a0 75 bd
       -0.0129195815 -0.018934056 -0.059967514
